…
  "logger_name": "/usr/local/extstore01/gengyi/VisualSearch/msrvtt10ktrain/cvpr_2019", 
  "testCollection": "msrvtt10ktest", 
  "n_caption": 20, 
  "overwrite": 0
}
=> loaded checkpoint '/usr/local/extstore01/gengyi/VisualSearch/msrvtt10ktrain/cvpr_2019/model_best.pth.tar' (epoch 10, best_rsum 292.334004024)
[BigFile] 305462x2048 instances loaded from /usr/local/extstore01/gengyi/VisualSearch/msrvtt10ktest/FeatureData/resnet-152-img1k-flatten0_outputos
Video_multilevel_encoding(
  (dropout): Dropout(p=0.2)
  (rnn): GRU(2048, 1024, batch_first=True, bidirectional=True)
  (convs1): ModuleList(
    (0): Conv2d(1, 512, kernel_size=(2, 2048), stride=(1, 1), padding=(1, 0))
    (1): Conv2d(1, 512, kernel_size=(3, 2048), stride=(1, 1), padding=(2, 0))
    (2): Conv2d(1, 512, kernel_size=(4, 2048), stride=(1, 1), padding=(3, 0))
    (3): Conv2d(1, 512, kernel_size=(5, 2048), stride=(1, 1), padding=(4, 0))
  )
  (visual_mapping): MFC(
    (fc1): Linear(in_features=6144, out_features=2048, bias=True)
    (dropout): Dropout(p=0.2)
    (bn_1): BatchNorm1d(2048, eps=1e-05, momentum=0.1, affine=True, track_running_stats=True)
  )
)
Text_multilevel_encoding(
  (dropout): Dropout(p=0.2)
  (embed): Embedding(7811, 500)
  (rnn): GRU(500, 512, batch_first=True, bidirectional=True)
  (convs1): ModuleList(
    (0): Conv2d(1, 512, kernel_size=(2, 1024), stride=(1, 1), padding=(1, 0))
    (1): Conv2d(1, 512, kernel_size=(3, 1024), stride=(1, 1), padding=(2, 0))
    (2): Conv2d(1, 512, kernel_size=(4, 1024), stride=(1, 1), padding=(3, 0))
  )
  (text_mapping): MFC(
    (fc1): Linear(in_features=10367, out_features=2048, bias=True)
    (dropout): Dropout(p=0.2)
    (bn_1): BatchNorm1d(2048, eps=1e-05, momentum=0.1, affine=True, track_running_stats=True)
  )
)
Running MSRVTT

 128/2990 [>.............................] - ETA: 30s
 256/2990 [=>............................] - ETA: 19s
 384/2990 [==>...........................] - ETA: 15s
 512/2990 [====>.........................] - ETA: 11s
 640/2990 [=====>........................] - ETA: 9s 
 768/2990 [======>.......................] - ETA: 7s
…
